models/model.pt (torch, 278900 bytes, 6 tensors)

net.0.weight f4 [256, 8]
00000000: a5bf c73b 20ab bdbe 1e37 ccbc 565d f6be
00000010: 6373 633e 58d1 a63c 9df1 b23d f3f4 213e
00000020: d95f 1f3c f7fb 1abd 1bc8 023d 73c8 593e
00000030: a756 903f 4c73 edbd b561 dcbd 01c0 8f3e
00000040: 79ab 083f adfb f5be efab 6ebd e0b9 423d
00000050: ec7f 313f bb3e 303e 3577 dfbd 7721 3e3e
00000060: 3768 cbbd d7b1 953e 2b5c b9bd 20d8 bdbc
00000070: d649 183d f441 c23e c080 52be d2b1 a8be
00000080: 2647 90be 33d7 743e 2513 843e 52e3 a63e
00000090: 1a23 71bf bc81 cc3e c621 32bf 99f2 2c3e
000000a0: b35f f7bd 5e52 54bc 3d46 c03d 6bf7 22bf
000000b0: c81f 3a3f c51d 873e 233b 3f3e ced2 fbbd
000000c0: d70f 83bd b5f6 86be d1c1 e63e 444b 3dbe
000000d0: 00d7 833e 3758 cc3d 8ad1 a4be 362e 473e
000000e0: df3d 51bf 604d f23e b37b efbe 041f b53e
000000f0: ec32 05bf 9f20 debd e949 bfbc f019 3dbe
00000100: fed8 9bbc 7914 af3e a2d9 c93e 8048 03be
00000110: b4a9 383f 137b 13be 3d80 e2be 98ac 27be
00000120: 6d17 893c a514 c93c a59b 7d3e b662 c83d
00000130: 35d7 c1be d80d 9f3d d0d5 b93e 4941 eb3e
00000140: f7ce 633e 624c eebc b3a2 6b3d bee7 743e
00000150: c374 06be 5c5c 133f f167 25bf 8647 44bf
00000160: e294 1dbe 2866 ff3e c5c2 b33e 2327 a23d
00000170: fe4f 9fbd f5b4 2cbf 3922 51be c965 20bf
00000180: 837e fcbd a2e6 b1be 31a0 1dbe 999a 77be
00000190: 62ef 38bd 05f5 c13d 42af a43e 6364 f63d
000001a0: 6efb a43e 9541 9a3e 0b46 d6be ec02 233e
000001b0: 924d b93e 7e1f fbbe 4c4c 713d 43dd 0b3e
000001c0: bc45 88be 0c62 1a3e 390d 853e f78c 63bf
000001d0: a251 bfbe 9b44 66be d9f2 1f3d 19b2 583d
000001e0: 7d34 88be 98cd 133f 4d83 fdbd 00b0 59be
000001f0: 6eef 403d 5e98 313e c9dd d7be a70e 28be
00000200: 7f58 22be e260 44be c456 da3e ddaa d9bd
00000210: d768 02bf 9c18 8bbe 3163 5ebe 1a0d aebd
00000220: 06c9 893e cb78 9c3e 01a0 8dbe df00 0fbf
00000230: e6b7 e7be b5c6 543e b301 663e 1979 a33e
00000240: e110 c43d 6507 d43e f560 a53e ac19 533e
00000250: 2c90 293f 1ff1 9abe 58ae 853d 1135 84bd
00000260: 74f8 75bd 46b5 a5bf 7be3 bf3e 2553 debd
00000270: 87c0 aa3d 324e a83e b1d2 83be 124f 03be
00000280: a0d7 a63d 311b 46bf 79c1 213f ce13 c93e
00000290: 23f6 89be 171f 06be d4d5 4a3d 9353 b83d
000002a0: bee5 88bc 6ef8 b13d 8ddb 6f3e f8ec 61bf
000002b0: 4230 db3d ace4 b83e c479 0cbf ac19 773e
000002c0: 1c74 0bbf 4bff f0be ec66 8e3e a3fc 553f
000002d0: 7186 e2be f9ed 3fbb 6638 7b3e 3a47 c1be
000002e0: 3695 813e d824 8a3e f029 34be 4c79 da3d
000002f0: ffa7 d93e 0ad7 8e3d 0c9e 99be 9cdc 18be
00000300: be5c 2fbd d052 3ebe e252 c5be ab73 583f
00000310: cc15 143e 0608 a33e 1152 02bf 15e0 a33e
00000320: 4330 9e3d 9607 b63e eb3b 673d afa9 ab3e
00000330: 6688 fbbd 1681 99be 8bc6 fbbe c050 9b3e
00000340: 9b20 383b 791f 0ebf d47a 53be 8c15 b1be
00000350: c9f0 30bd 32aa d6bd 7867 863e 8374 393e
00000360: 6b73 333e cd23 67bd 57b3 5c3e e41a 9cbe
00000370: 265f cf3d e4a6 19bf 6bad b9be 1cce 793e
00000380: c0c7 6bbe 1d8f d6be 212d adbe 0426 153f
00000390: da13 9d3e 896d 243e 95e6 15bf 32a9 063e
000003a0: 50d0 d0be 9abd a63d f114 c43e 2cf3 b63e
000003b0: 2089 3abf 7cce ef3e bed7 e8bc 3e66 b83d
000003c0: f2bc bdbe b405 213f 35b5 3abe 15c3 d03e
000003d0: 43d8 db3e def3 1c3c cbba c63c 5705 c1bd
000003e0: 881b 65bd ffa0 80bc 321b 62bf 3f5d 2a3d
000003f0: f726 5dbe 861f 833d 2adb 68be b4a1 f13e
0.006095844 -0.3704462 -0.024928626 -0.48118085 0.22211985 0.020363495 0.0873749 0.15816097
0.009727442 -0.03783795 0.031929117 0.21267872 1.1276444 -0.11594257 -0.10760824 0.28076175
0.53386647 -0.48043576 -0.058269437 0.047540545 0.6933582 0.1721143 -0.10911409 0.18567453
-0.09931987 0.29237244 -0.09050783 -0.023174345 0.03717979 0.37940943 -0.20556927 -0.32948166
-0.28179282 0.23910217 0.25795856 0.32595307 -0.94194186 0.3994273 -0.69582784 0.16889419
-0.120788 -0.012959091 0.09388397 -0.6365878 0.72704744 0.263899 0.18674903 -0.12296067
-0.063995056 -0.26360098 0.45069745 -0.18485743 0.2574997 0.09977763 -0.32191116 0.19451222
-0.8173503 0.47324657 -0.46774063 0.35375226 -0.52030826 -0.10846066 -0.023350673 -0.18466926
-0.019024368 0.34195307 0.39423853 -0.12820625 0.72133946 -0.14402418 -0.44238463 -0.16374433
0.016734803 0.024545977 0.24766405 0.097844526 -0.37859502 0.07766312 0.36295938 0.45948246
0.2224692 -0.029089157 0.05752821 0.23916528 -0.13130479 0.57562804 -0.64611727 -0.76671636
-0.15388826 0.49882627 0.35109535 0.07917621 -0.07778929 -0.6746362 -0.20423211 -0.6265531
-0.12328818 -0.3474627 -0.1539314 -0.24180068 -0.04515017 0.09470562 0.3216496 0.12030866
0.32223076 0.3012816 -0.41850314 0.15919083 0.36191994 -0.49047464 0.058910653 0.13658623
-0.26615703 0.15076464 0.2598665 -0.8888697 -0.37366968 -0.22487108 0.039049957 0.052904222
-0.26602545 0.57735586 -0.12378559 -0.21258545 0.047103338 0.1734328 -0.42161396 -0.1641184
-0.15854071 -0.19177583 0.42644322 -0.10628293 -0.5094122 -0.27167213 -0.21717526 -0.08498593
0.2691118 0.30560908 -0.27661136 -0.55860704 -0.4525749 0.20778926 0.22461586 0.31928328
0.09573532 0.41411892 0.32300535 0.20615262 0.66235614 -0.30262086 0.06527394 -0.06455434
-0.060051396 -1.2945945 0.3747824 -0.10855702 0.08337503 0.32872158 -0.25746682 -0.12823132
0.08146596 -0.7738524 0.6318584 0.39272922 -0.269456 -0.13097797 0.04952033 0.090003155
-0.016711112 0.08689962 0.23423596 -0.8825221 0.10702564 0.36111963 -0.548733 0.24130887
-0.54474044 -0.47069773 0.27812898 0.8358862 -0.44243196 -0.002928613 0.24533233 -0.37749654
0.2530915 0.26981235 -0.17594123 0.10667667 0.42510983 0.06974609 -0.30003393 -0.14927906
-0.042813055 -0.18586278 -0.38539797 0.84551495 0.1446144 0.3184206 -0.50906473 0.320069
0.07724049 0.35552663 0.056453627 0.33527896 -0.12281875 -0.29981297 -0.49174914 0.30335045
0.0028095606 -0.55516773 -0.20652324 -0.3458675 -0.04319838 -0.10481681 0.26250815 0.18110852
0.17524497 -0.056430627 0.21552788 -0.30489266 0.1012557 -0.6002028 -0.3626512 0.2439503
-0.23025417 -0.41906062 -0.33823493 0.5826113 0.30679208 0.1605741 -0.58554965 0.1315048
-0.4078393 0.081416324 0.38297227 0.357324 -0.72865486 0.46837223 -0.028423186 0.09003876
-0.37058216 0.6289933 -0.18233187 0.40773836 0.42938432 0.009579627 0.024258992 -0.094248466
-0.05593446 -0.015701769 -0.88322747 0.041592833 -0.21596895 0.06402497 -0.22739854 0.47193682

net.0.bias f4 [256]
00000000: 05f6 51be 73e4 913c ab0f 22be 5cb7 71be
00000010: be62 2a3e ba25 5e3c bbae 22be d6e1 81be
00000020: 7b12 39bd 9f32 61be 1d31 023e bff7 933d
00000030: db40 13be df64 77be 7c70 933e 5f4d a8be
00000040: 6dd2 07be 01a3 383d b9d2 43bd b8c1 a43e
00000050: c046 3f3e 2236 a83d d930 4bbe e46c 723e
00000060: 558a 6dbe 4349 be3e 28a1 0e3e eaec afbd
00000070: 9167 b3bd 94fd 22bd 8b27 143e 2464 273d
00000080: fc8e 7b3e 919f df3d abc6 6cbe afa5 503e
00000090: c5fe acbd 93ec 2dbe eb74 eebd 2fd0 1abe
000000a0: e21f f2bd fe69 fa3d ffc6 30be c672 9cbe
000000b0: 377a ca3e c55f a43e 182c 3ebe 7f52 b2be
000000c0: 9d9f 433e 034e 9dbe 5a85 37be 3e2e c2be
000000d0: 4b25 37bd 67e1 1e3e ddcb dfbe 643f 8b3c
000000e0: dc16 d03d 73a7 ac3e 0923 443e 0152 c7be
000000f0: c1de d63d 2757 683e 6cd4 8abe 3df3 4f3e
00000100: 0e66 2a3e c3d6 81bd 44cb a23d 462d 043f
00000110: 7532 9bbe 0ee3 52bd 8c37 f43e e322 64bb
00000120: 58c7 303e 3a90 8abe 74ca 81be 8627 cc3d
00000130: bbc7 ddbe 83c6 b8be 587d 2dbe 3e16 283e
00000140: b733 d43d 3976 f53e 3b31 dbbe 31b1 3b3e
00000150: a2a5 03be 3e60 8ebb 71d2 4f3b 859a 97bd
00000160: 06a8 833e a375 efbd f30f 95b8 741a ea3d
00000170: 527d de3e 1773 4fbe dd62 8dbe f8f5 6ebe
00000180: 7421 7fbe 0888 4bbe 5cfc 0a3e 9ef4 e83e
00000190: 0b9f ef3d d70f 013f bbf1 51be c95d a3be
000001a0: 069d 0c3e 8976 8fba 1aa3 143d a23b 813e
000001b0: ac62 49be fcb4 203e d34d 81be 220b 173e
000001c0: bcb1 873e df79 24be c803 85be d05e 6d3e
000001d0: f36d ac3e 00fd 373d 7efd 94bb 378f 9d3e
000001e0: 922b 6cbe 583d 7dbe e729 e4bd 287e b3bc
000001f0: 2f44 083e 9260 173d 76c3 1fbd 9e20 db3c
00000200: fa4c 2c3e c555 e03e b0d4 4f3e 2a6f 2abc
00000210: 50f3 d23e f38c 7fbe 3c11 9f3e ccdd bf3c
00000220: 5071 d13c 2400 073e d980 153e 513b aebe
00000230: 4d38 51be 0a68 b23d cdf8 473e 2238 d2be
00000240: 75dd 8e3c 40ab b23e c088 d03e 7f6b d9be
00000250: d9d3 2abe 8df5 623e c9a1 593e ba2e 213c
00000260: 7639 863e f56d 4abe 5b24 27be fe42 c5be
00000270: dda2 00bd 0545 03bd 0569 9d3e 3b0a 20be
00000280: e3e6 233e 9cb1 a9be f197 543d 6283 113d
00000290: 7ada 8e3e 19af cf3d 67a2 12be 337b 5b3e
000002a0: 389f 353e db46 003d 7ecf a1bd 6ef4 653e
000002b0: d7b4 b1be 368f 9c3e 4829 363e a7ea 9b3e
000002c0: ffdc 503a caae 4e3e 0a22 213e 10e1 c13e
000002d0: 8e2a e4bd b526 363e c58d 623d 3d03 853e
000002e0: 2d3e 443e 15f5 0a3e 5794 6fbe 26ee dc3d
000002f0: daf6 ba3c ecc5 7abd 63e3 183e 34fd 393e
00000300: 4104 9a3d 719a a2be 569b ffbe 75d1 553c
00000310: a457 363e b868 e6bd 97ed 2a3e b450 af3c
00000320: ee98 403e cd9a 42be 7410 c1be f548 af3e
00000330: 90d1 68be 0bc7 ac3c d40a a13d a065 1bbd
00000340: 5476 193e 3d99 c33e fdd6 ecbd bf06 bebe
00000350: f02e 523e 8439 0c3f 5c38 5c3c e305 143f
00000360: f4f5 08be 59d4 863d 63ed c3bd b0e1 803e
00000370: a277 02be 6091 0a3e cf3b 8b3c d5ba 42bd
00000380: 06eb b2bb 397c b7be f3dc 643d 759f 803e
00000390: 92d5 533e ecad 2e3e 3f56 aebe 6a8f 563e
000003a0: 5192 8bbe fc2d 913e 3edb 1d3d b460 91bc
000003b0: 35b7 20be 87a0 1fbe 2fbb 1ebe de07 36be
000003c0: 5adc 313e f4a4 67be e832 8ebe 83fd fc3c
000003d0: 5db5 0f3e 4bbc 2ebb daaf ad3d 88e1 2d3c
000003e0: 09ee 83be 003b 96be b1b1 883c 26df 4b3e
000003f0: e583 e1ba 8a12 a03e 97bc 143e ce58 dabd
-0.20504005 0.017809128 -0.1582629 -0.23605102 0.1663923 0.013558799 -0.15886967 -0.25367612
-0.04518364 -0.21991967 0.12714048 0.07224988 -0.14380209 -0.24159573 0.28796756 -0.3287153
-0.13263865 0.045077328 -0.047808383 0.32179046 0.18679333 0.0821345 -0.19842853 0.23674351
-0.231973 0.3716527 0.13928664 -0.0859011 -0.08759988 -0.039792612 0.1446821 0.040866986
0.24566263 0.10919107 -0.23122661 0.20375703 -0.08447031 -0.16984777 -0.11643394 -0.15118478
-0.118224874 0.12227248 -0.17263411 -0.30556315 0.39546368 0.32104316 -0.18571508 -0.34828565
0.19103856 -0.3072358 -0.17921963 -0.37925905 -0.0447133 0.15515672 -0.43710223 0.016998
0.1016061 0.33721504 0.1915399 -0.38929752 0.10491706 0.22689496 -0.2711519 0.20307632
0.16640493 -0.06339791 0.07948926 0.5163158 -0.30311933 -0.051486067 0.4769863 -0.0034810833
0.17263544 -0.2706316 -0.25349772 0.09968476 -0.43316445 -0.36088952 -0.16942346 0.16414735
0.10361426 0.4794176 -0.42810997 0.18329312 -0.12856153 -0.004344969 0.0031711126 -0.07402519
0.2571413 -0.11692359 -7.1078444e-05 0.11430827 0.43454987 -0.20258747 -0.2761449 -0.23336017
-0.24915105 -0.1987611 0.1357283 0.45499128 0.11700257 0.50414795 -0.20502369 -0.3190749
0.13731775 -0.001094536 0.03628836 0.2524081 -0.19666547 0.1569404 -0.25254688 0.1475034
0.26502788 -0.16062115 -0.25979447 0.231807 0.33677635 0.044919014 -0.00454682 0.30773327
-0.23063496 -0.24730432 -0.11140805 -0.021910742 0.1330726 0.03695733 -0.039004765 0.026748952
0.16826239 0.43815437 0.20295978 -0.01040248 0.41201258 -0.24956112 0.31067836 0.02342119
0.025566727 0.13183647 0.14599933 -0.3402963 -0.20431633 0.0871125 0.19528504 -0.4105845
0.017439583 0.34896278 0.40729332 -0.42464826 -0.16682376 0.22163983 0.21253122 0.009837801
0.26215714 -0.19768508 -0.16322462 -0.38527673 -0.03140532 -0.032048244 0.30744186 -0.15628903
0.16006045 -0.33143318 0.051902715 0.035525687 0.2790106 0.10140819 -0.14319764 0.21433716
0.17736518 0.031317573 -0.07900904 0.22456524 -0.34708282 0.3057801 0.17789185 0.30452463
0.00079675013 0.20183864 0.15735641 0.37867022 -0.11140929 0.17788203 0.055310983 0.25979033
0.19164343 0.13570054 -0.23396431 0.10787611 0.022822786 -0.06122391 0.14930491 0.18162996
0.075203426 -0.31758454 -0.499232 0.013050427 0.1780687 -0.11250442 0.16692196 0.021400787
0.18808338 -0.19004364 -0.37707865 0.3423535 -0.22736192 0.021091005 0.078633934 -0.037938714
0.14986545 0.3820285 -0.11564443 -0.37114522 0.20525718 0.5477526 0.0134411715 0.5782148
-0.13375074 0.06583471 -0.09566762 0.25172186 -0.12740949 0.13532019 0.016996292 -0.04754146
-0.005460146 -0.35836962 0.055874776 0.25121656 0.2068694 0.17058533 -0.34050176 0.20953146
-0.27260068 0.28355396 0.038539164 -0.017746307 -0.15694888 -0.1558858 -0.15501092 -0.17776439
0.17369214 -0.22621518 -0.27773213 0.030882603 0.14034028 -0.0026662524 0.08480807 0.010612853
-0.25767544 -0.29341888 0.016686292 0.19909343 -0.0017205445 0.31264144 0.14525066 -0.106614694

net.2.weight f4 [256, 256]
00000000: 769f 51bd 9753 49bd fa82 803c 0032 1539
00000010: 56d1 63bd dc31 4e3d 3eb7 eabc bfc7 78bd
00000020: 4e06 19bc 8ae9 6b3d 156e 2d3d 9531 873c
00000030: 0481 efbc b24a 903c 87b0 013d 9406 6a3c
00000040: 3c2a 543d 8d85 7abd 4a51 74bd 2ce9 963c
00000050: e0bd 3bbd 8f99 7b3c 3e83 11bd 22d9 22bd
00000060: 643a 22bd 4afb f9bc 0756 55bd 2863 14bc
00000070: 0d48 aabb 0b1f 38bd 487f 63bd b036 1bbd
00000080: f74c c6bc 43b1 82bc 3744 2e3d 7652 21bd
00000090: 74ca 273d 3011 99bc 7093 82bc ab8d 853c
000000a0: 2855 203d 6484 d63c e8a3 de3c 8b88 7cbd
000000b0: 7c7c 65bb 1f9b d3bb 1673 54bd 52ab d73c
000000c0: e497 d6bc 23cd 2e3d 8658 42bd 2177 b23c
000000d0: 5eff 22bd 2c6a fc3c 2dbf 01bd a6b9 51bd
000000e0: 7dfc 403c b8b0 403c 1530 623d 282e 123d
000000f0: 3e64 3bbd 1c23 013d c049 0cbc cc5b 2bbd
00000100: 1e8e 6c3d 0127 8bbd a573 6a3d 26b4 753d
00000110: e85f dfbc 0e1d 1bbd fd70 a53c 78c5 393d
00000120: e8c6 88bd 5873 423c 1c96 8abc b857 09bc
00000130: 9ebf 82bd 482d 1a3c 809a e13b e8ad 7e3d
00000140: 325d 2e3d cf50 3b3d d8ce 53bc ad65 df3c
00000150: 9094 24bd ec0c eebc 65cd 163d 878f eabc
00000160: f0aa 2e3d af4d 6cbd 98f8 46bd e0af 57bd
00000170: d7ce 7f3c 7a78 abbc 28c5 5cbc 608e acbc
00000180: 6224 213d cd36 0d3b 95e8 953c 783e f53c
00000190: c9bd 6e3c b7bf dbbc e002 34bd ba07 2f3d
000001a0: e92b 41bd 50cc 93bb 79a6 613c 4fb4 12bd
000001b0: bca5 4d3d 4709 243d 9ada 34bd 887c 593d
000001c0: 73a5 0a3d 5c4e 49bd a01b 323b d84e b7bc
000001d0: 8547 58bc 208e 37bd a697 17bd f0d6 a1bc
000001e0: 2cf5 8c3c c2ab 133d efab 33bd 4551 093b
000001f0: ad4e 833b c7f2 4cbd baca 7dbd 3dcb 5dbd
00000200: 201a 39bb 6b6e 77bd b258 023d 1e0b 02bd
00000210: d89a 80bd 5c78 953c 9130 74bd fe81 57bd
00000220: b92f dcbb 8638 f1bc 2252 11bd 089a 363c
00000230: 14c4 98bc 8077 19ba 3055 5fbd 9496 86bd
00000240: 450d 393d 2cf2 d53c bc8e 5fbd 484c abbc
00000250: 2eeb 67bd 33e2 0c3d 7040 b3bb c86f 0ebc
00000260: 44b7 acbc 3aa2 373d e55e e53c 7220 2bbd
00000270: 2061 4ebc 6d79 063d c874 a53c 5bda 0c3d
00000280: cdbd 1ebd 7869 51bd c046 8abc 0066 91bc
00000290: 890e 423c f628 1b3d ea12 1bbd f54d d13b
000002a0: dd76 b5bc fded 7bbd ba52 ff3c 1bb0 6e3c
000002b0: 8e08 bb3c f96b f33c ec02 e03c 643a 99bc
000002c0: 203a 0abc 5e99 343d 34ba d5bc 61a9 3ebd
000002d0: c0ea 33bc 3901 e9bc 486f 803c e03e f2bb
000002e0: 34f4 483d deb6 5b3d 4ebe c63c fc86 e43c
000002f0: 7c8e 523d 2e52 083d 556b 23bc df88 013c
00000300: 04fe 91bc c09e beb7 5b19 28bd c0f4 27bb
00000310: d5db 4fbc 31c1 4fbd b7a9 e8bc 95dd a83c
00000320: cf39 603c 4030 7b3d bd3f c2bc 79bf 4abd
00000330: 42ab 40bd 864d 573d f0b2 743c f40e bfbc
00000340: e3e1 193a 6cfe 7b3d 30bc fdbc 8883 d6bc
00000350: c06d d53a a036 5b3d c2c2 093d e0ff 123d
00000360: 9877 2f3c 1ca0 f7bc dd16 85bd 24d8 10bd
00000370: 7934 203d a4f3 7bbd d8f2 29bd 40ea 693c
00000380: 6041 453b 8063 ed3a aa75 033d 1425 573d
00000390: 12a4 1abd 2020 333d 2877 05bd b6ac ad3c
000003a0: 7447 6d3d df2e 0d3c f5fc d03c ce00 9abc
000003b0: 3370 dcbb ae65 65bd 28d4 dd3c 21f4 68bc
000003c0: bec0 86bd e8be f53b 557a 8b3b 01ae 4cbd
000003d0: 767d c03c 30d1 41bc 1821 9ebc aa8f 2fbd
000003e0: d04f 36bd fd9b 6abd 6c82 28bd b1d9 e6ba
000003f0: 92cf 6fbd 4575 31bd 20b4 13bb 5051 8dbb
-0.051177464 -0.049151983 0.015687454 0.00014228374 -0.05561956 0.05034052 -0.02865183 -0.060737368
-0.009339882 0.057595767 0.04234131 0.016503135 -0.029236324 0.017613743 0.03166249 0.014283795
0.05179809 -0.06116252 -0.059647836 0.018421732 -0.045835376 0.015356435 -0.035525553 -0.039757855
-0.039606467 -0.030515332 -0.052083995 -0.009056844 -0.0051965774 -0.04495148 -0.055541307 -0.03789395
-0.024206622 -0.015953666 0.042545523 -0.03938528 0.04096456 -0.018684953 -0.015939444 0.016302904
0.03914371 0.026186176 0.027177766 -0.061653655 -0.0035016825 -0.006457701 -0.051867567 0.02632681
-0.026195474 0.042676102 -0.047447704 0.02178532 -0.03979432 0.030812345 -0.03167646 -0.05120244
0.011778948 0.011760883 0.055221636 0.03568855 -0.045749895 0.031527624 -0.008562505 -0.04183559
0.05775272 -0.06794549 0.057239193 0.059986256 -0.027267411 -0.037869506 0.020195479 0.045354337
-0.06678563 0.01186832 -0.01691728 -0.00838273 -0.06384204 0.00941021 0.006884873 0.06217757
0.042569347 0.045731362 -0.012927733 0.027270162 -0.040180743 -0.029058896 0.036816973 -0.028632892
0.042643487 -0.057691272 -0.04857692 -0.05265796 0.015613279 -0.020931471 -0.01347474 -0.021063983
0.039341338 0.0021547556 0.01829938 0.029937014 0.0145716155 -0.026824815 -0.043948054 0.042731978
-0.047161017 -0.00451044 0.0137726 -0.035816487 0.050206885 0.04004791 -0.044153787 0.053097278
0.03384919 -0.049146995 0.002717711 -0.022376463 -0.013200645 -0.044813275 -0.037009858 -0.01975581
0.01720675 0.036052473 -0.04386514 0.0020952981 0.0040071816 -0.050036218 -0.061960913 -0.0541489
-0.0028244331 -0.060408037 0.031822868 -0.031748883 -0.06279534 0.018245868 -0.05961663 -0.052614205
-0.006719556 -0.029445898 -0.03547872 0.011145122 -0.018648185 -0.00058542937 -0.0545246 -0.06571689
0.04517867 0.026116453 -0.05457948 -0.020910397 -0.05662077 0.034395408 -0.005470328 -0.008693643
-0.021083482 0.044832446 0.02799935 -0.04177899 -0.012596399 0.032830644 0.020197287 0.034387928
-0.038755227 -0.051125973 -0.01687944 -0.017748833 0.011844286 0.03788086 -0.037859835 0.006387467
-0.022151405 -0.06150626 0.031167377 0.014568354 0.022831228 0.029714571 0.027345143 -0.0187046
-0.00843671 0.044091575 -0.026089765 -0.04654825 -0.010981262 -0.028442966 0.015678063 -0.007392749
0.049061015 0.053641193 0.024260666 0.027896397 0.051405415 0.033281498 -0.00997432 0.007906168
-0.01782132 -2.2723689e-05 -0.041039806 -0.002562806 -0.012686689 -0.05072135 -0.028401239 0.020613471
0.013685658 0.06132531 -0.023712033 -0.04949901 -0.047038324 0.052564166 0.01493524 -0.02332256
0.00058701466 0.061521932 -0.030973524 -0.026185766 0.0016283318 0.05351889 0.033633 0.035888553
0.010709666 -0.030227713 -0.064985014 -0.035362378 0.03911254 -0.06151165 -0.04149136 0.014277041
0.003009878 0.0018111318 0.032094635 0.052525595 -0.037754126 0.04373181 -0.03258434 0.021200519
0.05792947 0.008617132 0.025511244 -0.018799212 -0.0067272424 -0.056005172 0.027078703 -0.014218361
-0.065797314 0.0074995644 0.0042565265 -0.04997063 0.023497324 -0.011829659 -0.01930289 -0.042861618
-0.04450971 -0.05727767 -0.041140005 -0.0017612485 -0.058547564 -0.043324728 -0.0022537783 -0.0043126717

net.2.bias f4 [256]
00000000: e673 74bd 5540 53bc b3b5 e1bb b9bc 0e3e
00000010: b344 64bd ef91 e1bd fcbd aa3d d70c 1c3e
00000020: 5fa1 a6bd 8d74 f43d 2369 89bc 54d4 0cbe
00000030: 941b ea3d a459 963d 1ba8 b3bc 7cfa eebd
00000040: f88b 103e 3b9c e33b d1a8 783d d49d ff3d
00000050: 90d1 f53d e949 043e af97 de3d 4025 d63d
00000060: 4e03 75bd 7f38 bdbc f317 913d 8053 323e
00000070: 9e8c 43bd 2a56 5f3e b4ac 44bd cde2 023e
00000080: 2ff1 7d3d 1247 fc3d 59e0 cd3d 37d0 09be
00000090: c11e e63c aef1 9dbd c6bd 87bd 0a45 1b3e
000000a0: 797d 1f3e e0d7 1e3e ba78 c3bc b158 463e
000000b0: a7dc 923d 6b70 393e 32c1 40bc c949 19bc
000000c0: 44be e83c be28 88bd 4a98 59bd 7057 5bbc
000000d0: 5aa6 0a3d 38d3 5d3d af18 dbbc 879a 29bd
000000e0: f7fc 613d 4473 023e de58 323e e61f 113e
000000f0: ee30 c5bd b94d e03c d9df c93c 3373 93bd
00000100: a20d ff3d 50d3 df3c 3f06 783d b1e3 0f3e
00000110: aef9 4b3c e5bc 233e 2fb6 64bd e453 f13d
00000120: 69c1 0dbd bbf6 50bd 0a09 80bd 5f65 5bbc
00000130: 56d8 e9bc 689b 70bb 19f6 7fbe 85a0 34bc
00000140: 00e5 1b3e bb77 dabd 977e 57bd b365 133e
00000150: e49c e33d 59de 00be ea28 a4bd 13f3 c03d
00000160: 2f63 a23d b5b9 59bd 199c 1c3e ce69 8f3c
00000170: cdb5 b73d 8f93 863d c6bc cbbd edd5 583c
00000180: 0d0e 263e a21a aebd 962f 183e 6eb9 34bd
00000190: 55b5 51bd b6ed 353e 1ca7 28bd a3e8 093e
000001a0: 181a 31bc ee56 853d 3838 83bd 0de8 b33c
000001b0: 2d39 123e e66b 6ebd ebed be3c c6f8 423d
000001c0: f587 313e 2b1e cbbd a966 02be e53c 2f3e
000001d0: 9b94 22be 7664 7abd 5f0b 6fbd 638d 2a3d
000001e0: f137 0fbd e36c 7f3d 3cb5 d03d 3fc1 013c
000001f0: aee5 52bd 6c37 2e3e 0b5a 57bd 104c 373d
00000200: 95c2 04be 132b 2e3e 2ccd 953d 6b96 623d
00000210: 3e66 e63d 286b 803c ff5e ba3c 22cb ae3d
00000220: f2a3 023d 4c1f c03c 5cac 4e3d 21e4 c7bd
00000230: bc32 a2bc 4276 6dbd 38b0 0ebc 7236 ed3a
00000240: bbcc 2d3d c26f ee3d 6f7d 9ebd 7d55 05bd
00000250: 2750 ccbd 110f a2bd de58 993d bc1c 6d3d
00000260: e500 3c3d 400b 0c3e c9c1 0a3e 5a09 b1bd
00000270: c424 4d3c 951e cdbd 21ef e7bc 1d81 293e
00000280: 3c05 d03d 925f 303d 5e22 533d 9d3d 4a3d
00000290: 595e 6339 6302 db3d 6b68 bcbc 7297 6fbd
000002a0: 7e41 8abd 870d 8d3c 6273 013e 7be6 05bb
000002b0: 9bf4 47bd 60b5 a13d 4a76 fe3d f071 673d
000002c0: c57d 0abd cd00 7fbd 5fc3 dabd 4306 76bd
000002d0: 163f acba b4c6 f73d 9136 0cbd 50e5 0dbe
000002e0: a809 043e 4f15 313b c307 ca3d d629 27bd
000002f0: 36fa b63c 8808 073e c08f 243e 87ee 363d
00000300: d406 323e 2485 323e bfd2 39bd d053 60bd
00000310: b5f7 10be 986a 343e fff4 b2bd 2d96 a93d
00000320: 42b6 033e b7d2 b63d 55e6 db3d 7d4b 023e
00000330: 072e 81bd 0975 6d3d 4e16 f23d caa4 7d3e
00000340: 8328 823c ce22 40bc ce90 373d 7cde 2d3e
00000350: 34e1 a33d 3c18 9c3c 9b6c 003c 4aa0 7cbc
00000360: 6e54 75bd 7aa9 913c 2f27 62bd 2b9f 4f3e
00000370: 4e47 21bd 367b 0f3e b342 fe3c e539 cd3d
00000380: 459d b43d 44f2 f4bc 060d 353d 439d 583e
00000390: a7d8 343e a45d 7dbd 7ee2 863c b8bf 153d
000003a0: 398e 253e 5cb0 abbd 2cac 1b3e e1a1 bbbd
000003b0: 02e0 00bd 331b b0bb 3ab2 c4bd cd9d 1c3e
000003c0: c2b8 8dbd bcfc 2d3e 3b50 523d 5ab0 fb3d
000003d0: fa72 0a3c 93d4 b3bc 43ed 3bbd 083d 253e
000003e0: bfb8 ff3c f418 82bd a4bc 753c c0ea f63d
000003f0: 29b0 813d b1b2 d83d 6f55 bb3d 0372 5bbd
-0.059680842 -0.012893756 -0.0068881153 0.1393918 -0.05572958 -0.11014163 0.08337018 0.15239273
-0.08136248 0.11936293 -0.016773766 -0.13752872 0.11431041 0.07341316 -0.021930745 -0.1166887
0.14115894 0.0069461144 0.06070787 0.12481275 0.120028615 0.1291882 0.10868775 0.104563236
-0.059817605 -0.023098228 0.07084646 0.17414665 -0.047741525 0.21810213 -0.048016265 0.1278183
0.06199759 0.12318243 0.100525565 -0.13458334 0.028090836 -0.07712112 -0.06627993 0.15163055
0.15575208 0.15512037 -0.023861278 0.1936977 0.07170992 0.1810929 -0.011764811 -0.009355971
0.028411038 -0.06648396 -0.05312375 -0.013387546 0.03385005 0.054156512 -0.026745168 -0.041407134
0.055172887 0.12739283 0.17416713 0.14172325 -0.09628473 0.027380811 0.024642872 -0.07199707
0.12453772 0.027322441 0.06055283 0.14051701 0.012449665 0.15990026 -0.055837806 0.11783579
-0.03460828 -0.05101655 -0.06251724 -0.013390868 -0.02854554 -0.0036713723 -0.24996223 -0.011024599
0.15224075 -0.10667368 -0.05261096 0.14394264 0.11113909 -0.12584819 -0.08015616 0.09421363
0.07929074 -0.05315562 0.15293922 0.017506506 0.089702226 0.06571113 -0.09948115 0.013234598
0.16216297 -0.085011736 0.14861903 -0.044122152 -0.051198322 0.17766461 -0.041174993 0.1346765
-0.010809444 0.06510721 -0.06407207 0.021961236 0.14279623 -0.05820837 0.023306808 0.04760053
0.1733702 -0.099178635 -0.12734474 0.17113073 -0.15877001 -0.061130963 -0.058360454 0.041638743
-0.03496546 0.0623597 0.10190818 0.007919609 -0.05148857 0.1701333 -0.052576106 0.044750273
-0.12964852 0.17008619 0.07314524 0.05531923 0.1124997 0.015676096 0.022750376 0.08534838
0.03189463 0.023452424 0.050457343 -0.09760309 -0.019799583 -0.057974108 -0.008709006 0.0018097891
0.042431574 0.1164241 -0.07738768 -0.03255223 -0.09976225 -0.0791303 0.07487653 0.05788873
0.04589929 0.13676167 0.13550486 -0.08644362 0.012520973 -0.10015599 -0.028312268 0.16553159
0.101572484 0.043059893 0.051546447 0.049375165 0.00021683554 0.106938146 -0.02299901 -0.05849404
-0.06750773 0.017218364 0.12641671 -0.0020431567 -0.04881726 0.07895923 0.124249056 0.056505144
-0.03381135 -0.062256623 -0.10681795 -0.060064565 -0.001314136 0.120984465 -0.034231726 -0.13857007
0.12894309 0.0027020758 0.09864762 -0.040811382 0.022336107 0.13186848 0.16070461 0.04466107
0.17385417 0.17433602 -0.045367 -0.05476743 -0.14156993 0.17618787 -0.087381355 0.08280597
0.12862495 0.089269094 0.10737292 0.12724109 -0.06307607 0.05797294 0.118206605 0.24769893
0.015888458 -0.011727048 0.04481583 0.16979402 0.080019385 0.019054525 0.007838394 -0.015419075
-0.05989497 0.017781008 -0.05521315 0.20275562 -0.039374642 0.14011845 0.031037664 0.10020808
0.08819059 -0.029900678 0.044201873 0.2115374 0.17660771 -0.06185688 0.016465422 0.03655979
0.16167535 -0.08383247 0.15202397 -0.09161735 -0.03146363 -0.005374336 -0.096043065 0.15294571
-0.069200054 0.16990942 0.051346045 0.12289496 0.008450264 -0.02195195 -0.045880567 0.16136563
0.031216023 -0.06352416 0.014998589 0.12056494 0.06332428 0.10580958 0.091471545 -0.053575527

net.4.weight f4 [4, 256]
00000000: 61dd 383c 9a25 91be f2eb 9a3c d2d0 dcbe
00000010: ce68 3f3d f7c2 0f3e bd46 3b3f 07f3 33be
00000020: 0a59 62be c56f 2fbe f345 d8bb 2ce6 303d
00000030: 3541 003f 2b49 33be ad09 4d3e 4f85 053d
00000040: 4ac7 39be ddb8 3a3c 5f65 45be 22e5 1bbe
00000050: 470e ab3e ddff 07be 03a3 11be 7410 32be
00000060: d55e a53e 446b 84be d8fc ddbd 7978 eabd
00000070: 6392 1ebc 1af7 73bd 26c3 2fbc cb5b 25be
00000080: 2b9b 3dbe 30e5 113f ace7 e13e f44d 7abd
00000090: c884 403c 88d6 d3be c3d1 4ebe a1a3 3d3f
000000a0: 1179 753f 9310 01be 69d4 353d dde1 043f
000000b0: e925 e6be e2b4 653e 85a2 6ebb d1a1 e1bc
000000c0: 27c6 c4bb c949 283c daa7 4cbe ffb7 013e
000000d0: aed7 513e 577b 8fbe 34a1 8b3c 8648 a2be
000000e0: 863d 41be 33d1 0abe 2ae7 ebbd a2ab 673f
000000f0: e5d9 193d 33fe 613c 9b49 063f c9ec 153d
00000100: 4403 22be 9664 093d 35f2 debd a19a 1cbe
00000110: 3c03 143d 16af 523f 918a cb3c 92a9 523f
00000120: 76dd efbe 1889 fe3c 7078 1e3d 5a03 a1be
00000130: 3b7b b3be 552e 0fbf 252c a63e 92fc a93b
00000140: 6144 34be 51b3 cebe cc5d a53c 9989 00be
00000150: f97c 393f 2f2b 62be 6f63 e3be deb5 43be
00000160: 1c39 e6bd 9744 3bbb ba2d 0bbe db74 05bc
00000170: 29dd 153f bee3 4c3f b236 46bd 376e a63d
00000180: ae75 49be 7dac 9fbe 2e89 1e3f c637 ea3c
00000190: ea97 133c 8c46 3ebe 3232 dbbe 2806 2cbe
000001a0: 8944 963e 4370 493e 1ff0 39be e529 76ba
000001b0: cd6d 39be dae3 6fbb 6c5c 393d be8c 643d
000001c0: dc1e 023f e767 cabe 6695 6c3e b680 23be
000001d0: d05f 783e 3a5d ce3c a646 363d e273 26be
000001e0: dfcb a33c e0c1 42be 085d 50be af56 803e
000001f0: b4f7 9b3c 6a97 28be ce2e f53b e2b0 43be
00000200: ac68 613e 3bf2 de3e eacd 3abe bb58 43be
00000210: 96a5 46be c4bb 5cbe 968c 38be 9f2f 16be
00000220: a522 37be 0a0b 0c3e aedf c9bc 5321 19bd
00000230: 4e14 e23c f8d3 4fbd b08a 803b 9fdf a9be
00000240: 480d 9bbc bb9e 2dbe 5dcc d0b8 15bd c5bc
00000250: 03f0 67be 0d43 bbbe 530e 763e f6ec 843f
00000260: acfd 4fbe 3e71 38be 53ff 2cbe 3a53 bbbe
00000270: 2df9 b1bc 5cbf 4ebd c332 f0be 8a5b 10be
00000280: 9ef3 3a3e 7aa0 113f 2bc8 d3bb daaf dbbd
00000290: 7161 003d 6ca5 26be 5af4 0abd b6e0 89be
000002a0: 804d 3c3c 73df 2c3c 8ec9 a5be 362a b93e
000002b0: ea16 f0bb c186 be3c 2d01 e9bd 99c2 afbd
000002c0: d9a7 e9be bd37 99bc 8c26 7fbe 68af 363e
000002d0: b2d6 64bd a8e5 0ebe fb36 ba3c b601 0fbe
000002e0: 6231 05be fe2d c9be 57a9 2cbe 4036 8dbe
000002f0: b7f7 bcbc d752 333f 0eb8 35be 71d6 0dbe
00000300: 7dae 643f 16b0 193f 07ed 87be 5a93 323d
00000310: 0298 ae3e e06e f53e 1595 bfbb 5444 dcbe
00000320: 63ac f7bd 044d aa3e b77e cabe 5350 04be
00000330: 8776 e2be 8c85 8d3e 654a 2bbe b675 e13e
00000340: ed91 e6be e617 633c 766e a2be e6ea 2fbe
00000350: ba27 bdbe cf17 0f3f 746c 613d 6701 0a3d
00000360: 755e aabe f596 dd3c a698 823c 365a 3b3f
00000370: eaea 3d3c f3bf 32be 30f4 1f3e 8cf4 593e
00000380: 8fb9 9bbe 128e 77be 3013 29be 5879 1f3f
00000390: 8700 0fbe a43c fa3e 7fd9 bdbe 630e a63b
000003a0: aef4 973f 6630 be3e 472c 3bbe 6b4d cfbd
000003b0: cb63 633d cf3f bbbe 8eaa 73be a118 3fbe
000003c0: b1d8 6a3e fa9c 20be c09b 02be 9000 10be
000003d0: ad86 4d3c f269 e8bc c086 22be c0f4 9b3e
000003e0: 44af c23e c3d9 313d 8c17 76bc 9c2c 94be
000003f0: d4ef 22be ac79 623d 3f47 8a3d c49a 98be
0.01128325 -0.28349 0.018911336 -0.43128067 0.04673081 0.14039217 0.73154813 -0.17573176
-0.22104278 -0.1713248 -0.0066001355 0.04318826 0.500995 -0.1750838 0.20023222 0.032597836
-0.18142429 0.011396614 -0.19276951 -0.15224126 0.3340933 -0.13281198 -0.1422234 -0.17389089
0.32298914 -0.25863087 -0.10839242 -0.114487596 -0.009678456 -0.059561826 -0.010727679 -0.16148297
-0.18516223 0.5699034 0.44122064 -0.0611095 0.0117504075 -0.41374612 -0.20197205 0.740778
0.9588786 -0.12603979 0.044392023 0.5190714 -0.44950798 0.22432283 -0.0036412787 -0.02754298
-0.006005067 0.010271498 -0.19985905 0.12667845 0.20492432 -0.28023788 0.017044641 -0.31695956
-0.18871126 -0.13556366 -0.115187004 0.90496266 0.037561316 0.013793516 0.52456063 0.03660277
-0.15821558 0.03354319 -0.10886041 -0.15293361 0.036135897 0.8229841 0.024846347 0.82289994
-0.4684865 0.03107123 0.038689077 -0.3144787 -0.35054955 -0.5593007 0.32455555 0.0051875794
-0.1760421 -0.40371183 0.020186327 -0.1255249 0.7245632 -0.22086786 -0.444118 -0.19112346
-0.112413615 -0.0028574818 -0.13591662 -0.008145536 0.5854059 0.80035007 -0.048392005 0.081264906
-0.19673797 -0.31186286 0.6192807 0.028591048 0.009008387 -0.18581599 -0.42811733 -0.16799223
0.29349163 0.1967173 -0.18158005 -0.0009390398 -0.18108292 -0.0036604316 0.045254156 0.055798285
0.5082834 -0.39532396 0.23103866 -0.15967068 0.242553 0.025190938 0.04450097 -0.16255143
0.019994674 -0.1901927 -0.20347989 0.25066134 0.019039012 -0.1646401 0.007482386 -0.19110444
0.22012585 0.43544182 -0.18242612 -0.19076817 -0.19399104 -0.21556002 -0.1802238 -0.14666604
-0.1788431 0.13676086 -0.024642792 -0.037385296 0.027597573 -0.05073926 0.003922783 -0.33178422
-0.018927231 -0.16955082 -9.9562785e-05 -0.024138013 -0.22650151 -0.36574593 0.24028902 1.0384815
-0.20311612 -0.18011948 -0.16894273 -0.36586934 -0.021725262 -0.050475463 -0.46913728 -0.1409742
0.18256995 0.5688549 -0.006463071 -0.107269004 0.031342927 -0.16274041 -0.033924438 -0.26929253
0.011493087 0.010551321 -0.32380337 0.36165017 -0.0073269503 0.023257615 -0.113771774 -0.085820384
-0.4563587 -0.018703336 -0.24917048 0.1784035 -0.055868812 -0.13954794 0.022731295 -0.13965496
-0.1300712 -0.39292902 -0.16861473 -0.27580452 -0.023067338 0.7004828 -0.17745993 -0.13851334
0.8932875 0.6003431 -0.26548025 0.043597557 0.34100348 0.47936153 -0.0058466294 -0.4302088
-0.12093427 0.33261883 -0.395498 -0.12921266 -0.44231054 0.2764095 -0.16727598 0.4403512
-0.45033208 0.013860678 -0.317249 -0.1717945 -0.3694437 0.55895704 0.05503507 0.033692744
-0.3327519 0.027049521 0.01594193 0.73184526 0.011591652 -0.17456035 0.15620494 0.21284693
-0.30415007 -0.2417529 -0.16511226 0.6229453 -0.13965045 0.4887439 -0.3708 0.005067633
1.1871545 0.371463 -0.18278609 -0.10122188 0.055515092 -0.3657212 -0.2379553 -0.18661739
0.22934224 -0.15684882 -0.12754726 -0.14062715 0.012544316 -0.028370831 -0.15871716 0.30460167
0.38024342 0.043420564 -0.015020262 -0.28940284 -0.159118 0.055291817 0.0675187 -0.29805577

net.4.bias f4 [4]
00000000: 8d68 8b3c 37db 52be 18c6 c9bd 96ce cabd
0.017017627 -0.20591436 -0.098522365 -0.099026844
